…
batch_normalization_666 (BatchN (None, 18, 18, 18, 1 448         concatenate_296[0][0]            
__________________________________________________________________________________________________
activation_666 (Activation)     (None, 18, 18, 18, 1 0           batch_normalization_666[0][0]    
__________________________________________________________________________________________________
conv3d_667 (Conv3D)             (None, 18, 18, 18, 5 6328        activation_666[0][0]             
__________________________________________________________________________________________________
average_pooling3d_50 (AveragePo (None, 9, 9, 9, 56)  0           conv3d_667[0][0]                 
__________________________________________________________________________________________________
batch_normalization_667 (BatchN (None, 9, 9, 9, 56)  224         average_pooling3d_50[0][0]       
__________________________________________________________________________________________________
activation_667 (Activation)     (None, 9, 9, 9, 56)  0           batch_normalization_667[0][0]    
__________________________________________________________________________________________________
conv3d_668 (Conv3D)             (None, 9, 9, 9, 64)  3584        activation_667[0][0]             
__________________________________________________________________________________________________
spatial_dropout3d_45 (SpatialDr (None, 9, 9, 9, 64)  0           conv3d_668[0][0]                 
__________________________________________________________________________________________________
batch_normalization_668 (BatchN (None, 9, 9, 9, 64)  256         spatial_dropout3d_45[0][0]       
__________________________________________________________________________________________________
activation_668 (Activation)     (None, 9, 9, 9, 64)  0           batch_normalization_668[0][0]    
__________________________________________________________________________________________________
conv3d_669 (Conv3D)             (None, 9, 9, 9, 16)  27664       activation_668[0][0]             
__________________________________________________________________________________________________
concatenate_297 (Concatenate)   (None, 9, 9, 9, 72)  0           conv3d_669[0][0]                 
                                                                 average_pooling3d_50[0][0]       
__________________________________________________________________________________________________
batch_normalization_669 (BatchN (None, 9, 9, 9, 72)  288         concatenate_297[0][0]            
__________________________________________________________________________________________________
activation_669 (Activation)     (None, 9, 9, 9, 72)  0           batch_normalization_669[0][0]    
__________________________________________________________________________________________________
conv3d_670 (Conv3D)             (None, 9, 9, 9, 64)  4608        activation_669[0][0]             
__________________________________________________________________________________________________
spatial_dropout3d_46 (SpatialDr (None, 9, 9, 9, 64)  0           conv3d_670[0][0]                 
__________________________________________________________________________________________________
batch_normalization_670 (BatchN (None, 9, 9, 9, 64)  256         spatial_dropout3d_46[0][0]       
__________________________________________________________________________________________________
activation_670 (Activation)     (None, 9, 9, 9, 64)  0           batch_normalization_670[0][0]    
__________________________________________________________________________________________________
conv3d_671 (Conv3D)             (None, 9, 9, 9, 16)  27664       activation_670[0][0]             
__________________________________________________________________________________________________
concatenate_298 (Concatenate)   (None, 9, 9, 9, 88)  0           conv3d_671[0][0]                 
                                                                 concatenate_297[0][0]            
__________________________________________________________________________________________________
batch_normalization_671 (BatchN (None, 9, 9, 9, 88)  352         concatenate_298[0][0]            
__________________________________________________________________________________________________
activation_671 (Activation)     (None, 9, 9, 9, 88)  0           batch_normalization_671[0][0]    
__________________________________________________________________________________________________
conv3d_672 (Conv3D)             (None, 9, 9, 9, 64)  5632        activation_671[0][0]             
__________________________________________________________________________________________________
spatial_dropout3d_47 (SpatialDr (None, 9, 9, 9, 64)  0           conv3d_672[0][0]                 
__________________________________________________________________________________________________
batch_normalization_672 (BatchN (None, 9, 9, 9, 64)  256         spatial_dropout3d_47[0][0]       
__________________________________________________________________________________________________
activation_672 (Activation)     (None, 9, 9, 9, 64)  0           batch_normalization_672[0][0]    
__________________________________________________________________________________________________
conv3d_673 (Conv3D)             (None, 9, 9, 9, 16)  27664       activation_672[0][0]             
__________________________________________________________________________________________________
concatenate_299 (Concatenate)   (None, 9, 9, 9, 104) 0           conv3d_673[0][0]                 
                                                                 concatenate_298[0][0]            
__________________________________________________________________________________________________
batch_normalization_673 (BatchN (None, 9, 9, 9, 104) 416         concatenate_299[0][0]            
__________________________________________________________________________________________________
activation_673 (Activation)     (None, 9, 9, 9, 104) 0           batch_normalization_673[0][0]    
__________________________________________________________________________________________________
conv3d_674 (Conv3D)             (None, 9, 9, 9, 64)  6656        activation_673[0][0]             
__________________________________________________________________________________________________
spatial_dropout3d_48 (SpatialDr (None, 9, 9, 9, 64)  0           conv3d_674[0][0]                 
__________________________________________________________________________________________________
batch_normalization_674 (BatchN (None, 9, 9, 9, 64)  256         spatial_dropout3d_48[0][0]       
__________________________________________________________________________________________________
activation_674 (Activation)     (None, 9, 9, 9, 64)  0           batch_normalization_674[0][0]    
__________________________________________________________________________________________________
conv3d_675 (Conv3D)             (None, 9, 9, 9, 16)  27664       activation_674[0][0]             
__________________________________________________________________________________________________
concatenate_300 (Concatenate)   (None, 9, 9, 9, 120) 0           conv3d_675[0][0]                 
                                                                 concatenate_299[0][0]            
__________________________________________________________________________________________________
conv3d_transpose_49 (Conv3DTran (None, 18, 18, 18, 1 107632      concatenate_300[0][0]            
__________________________________________________________________________________________________
batch_normalization_675 (BatchN (None, 9, 9, 9, 120) 480         concatenate_300[0][0]            
__________________________________________________________________________________________________
add_49 (Add)                    (None, 18, 18, 18, 1 0           concatenate_296[0][0]            
                                                                 conv3d_transpose_49[0][0]        
__________________________________________________________________________________________________
activation_675 (Activation)     (None, 9, 9, 9, 120) 0           batch_normalization_675[0][0]    
__________________________________________________________________________________________________
conv3d_transpose_50 (Conv3DTran (None, 36, 36, 36, 9 86112       add_49[0][0]                     
__________________________________________________________________________________________________
global_average_pooling3d_25 (Gl (None, 120)          0           activation_675[0][0]             
__________________________________________________________________________________________________
add_50 (Add)                    (None, 36, 36, 36, 9 0           concatenate_292[0][0]            
                                                                 conv3d_transpose_50[0][0]        
__________________________________________________________________________________________________
clf (Dense)                     (None, 1)            121         global_average_pooling3d_25[0][0]
__________________________________________________________________________________________________
seg (Conv3D)                    (None, 36, 36, 36, 1 97          add_50[0][0]                     
==================================================================================================
Total params: 598,770
Trainable params: 594,914
Non-tr
…
